…
Episode 92: reward: 197.511, steps: 818
Episode 93: reward: 262.070, steps: 267
Episode 94: reward: 244.835, steps: 323
Episode 95: reward: 264.282, steps: 310
Episode 96: reward: 184.557, steps: 456
Episode 97: reward: 271.288, steps: 317
Episode 98: reward: 254.196, steps: 278
Episode 99: reward: 159.501, steps: 365
Episode 100: reward: 254.666, steps: 296
Model: "sequential_2"
_________________________________________________________________
Layer (type)                 Output Shape              Param #
=================================================================
flatten_2 (Flatten)          (None, 8)                 0
_________________________________________________________________
dense_8 (Dense)              (None, 64)                576
_________________________________________________________________
activation_8 (Activation)    (None, 64)                0
_________________________________________________________________
dense_9 (Dense)              (None, 64)                4160
_________________________________________________________________
activation_9 (Activation)    (None, 64)                0
_________________________________________________________________
dense_10 (Dense)             (None, 32)                2080
_________________________________________________________________
activation_10 (Activation)   (None, 32)                0
_________________________________________________________________
dense_11 (Dense)             (None, 4)                 132
_________________________________________________________________
activation_11 (Activation)   (None, 4)                 0
=================================================================
Total params: 6,948
Trainable params: 6,948
Non-trainable params: 0
_________________________________________________________________
None