Model: "sequential"
_________________________________________________________________
Layer (type)                 Output Shape              Param #
=================================================================
flatten (Flatten)            (None, 8)                 0
_________________________________________________________________
dense (Dense)                (None, 64)                576
_________________________________________________________________
activation (Activation)      (None, 64)                0
_________________________________________________________________
dense_1 (Dense)              (None, 64)                4160
_________________________________________________________________
activation_1 (Activation)    (None, 64)                0
_________________________________________________________________
dense_2 (Dense)              (None, 32)                2080
_________________________________________________________________
activation_2 (Activation)    (None, 32)                0
_________________________________________________________________
dense_3 (Dense)              (None, 4)                 132
_________________________________________________________________
activation_3 (Activation)    (None, 4)                 0
=================================================================
Total params: 6,948
Trainable params: 6,948
Non-trainable params: 0
_________________________________________________________________
None
Training for 300000 steps ...
     71/300000: episode: 1, duration: 0.117s, episode steps:  71, steps per second: 609, episode reward: -124.805, mean reward: -1.758 [-100.000,  5.833], mean action: 1.282 [0.000, 3.000],  loss: --, mse: --, mean_q: --, mean_eps: --
…
