Model: "sequential"
_________________________________________________________________
Layer (type)                 Output Shape              Param #
=================================================================
flatten (Flatten)            (None, 8)                 0
_________________________________________________________________
dense (Dense)                (None, 64)                576
_________________________________________________________________
activation (Activation)      (None, 64)                0
_________________________________________________________________
dense_1 (Dense)              (None, 64)                4160
_________________________________________________________________
activation_1 (Activation)    (None, 64)                0
_________________________________________________________________
dense_2 (Dense)              (None, 32)                2080
_________________________________________________________________
activation_2 (Activation)    (None, 32)                0
_________________________________________________________________
dense_3 (Dense)              (None, 4)                 132
_________________________________________________________________
activation_3 (Activation)    (None, 4)                 0
=================================================================
Total params: 6,948
Trainable params: 6,948
Non-trainable params: 0
_________________________________________________________________
None
C:\Users\nguye\anaconda3\lib\site-packages\tensorflow\python\keras\engine\training.py:2325: UserWarning: `Model.state_updates` will be removed in a future version. This property should not be used in TensorFlow 2.0, as `updates` are applied automatically.
…
