
4
Model: "sequential"
_________________________________________________________________
Layer (type)                 Output Shape              Param #
=================================================================
flatten (Flatten)            (None, 8)                 0
_________________________________________________________________
dense (Dense)                (None, 16)                144
_________________________________________________________________
activation (Activation)      (None, 16)                0
_________________________________________________________________
dense_1 (Dense)              (None, 32)                544
_________________________________________________________________
activation_1 (Activation)    (None, 32)                0
_________________________________________________________________
dense_2 (Dense)              (None, 4)                 132
_________________________________________________________________
activation_2 (Activation)    (None, 4)                 0
=================================================================
Total params: 820
Trainable params: 820
Non-trainable params: 0
_________________________________________________________________
None
Training for 20000 steps ...
   120/20000: episode: 1, duration: 1.004s, episode steps: 120, steps per second: 120, episode reward: -49.619, mean reward: -0.413 [-100.000, 118.012], mean action: 1.533 [0.000, 3.000],  loss: 17.364729, mae: 0.814912, mean_q: 0.407262, mean_eps: 0.997075
…
C:\Users\nguye\anaconda3\lib\site-packages\tensorflow\python\keras\engine\training.py:2325: UserWarning: `Model.state_updates` will be removed in a future version. This property should not be used in TensorFlow 2.0, as `updates` are applied automatically.
  warnings.warn('`Model.state_updates` will be removed in a future version. '
Testing for 5 episodes ...
Episode 1: reward: 227.290, steps: 433
Episode 2: reward: 203.973, steps: 585
Episode 3: reward: 220.219, steps: 529
Episode 4: reward: 205.124, steps: 518
Episode 5: reward: 217.539, steps: 453
4
Model: "sequential_2"
_________________________________________________________________
Layer (type)                 Output Shape              Param #
=================================================================
flatten_2 (Flatten)          (None, 8)                 0
_________________________________________________________________
dense_6 (Dense)              (None, 64)                576
_________________________________________________________________
activation_6 (Activation)    (None, 64)                0
_________________________________________________________________
dense_7 (Dense)              (None, 64)                4160
_________________________________________________________________
activation_7 (Activation)    (None, 64)                0
_________________________________________________________________
dense_8 (Dense)              (None, 32)                2080
_________________________________________________________________
activation_8 (Activation)    (None, 32)                0
_________________________________________________________________
dense_9 (Dense)              (None, 4)                 132
_________________________________________________________________
activation_9 (Activation)    (None, 4)                 0
=================================================================
Total params: 6,948
Trainable params: 6,948
Non-trainable params: 0
_________________________________________________________________
None
C:\Users\nguye\anaconda3\lib\site-packages\rl\memory.py:37: UserWarning: Not enough entries to sample without replacement. Consider increasing your warm-up phase to avoid oversampling!
  warnings.warn('Not enough entries to sample without replacement. Consider increasing your warm-up phase to avoid oversampling!')
…
