Model: "sequential"
_________________________________________________________________
Layer (type)                 Output Shape              Param #
=================================================================
flatten (Flatten)            (None, 8)                 0
_________________________________________________________________
dense (Dense)                (None, 128)               1152
_________________________________________________________________
activation (Activation)      (None, 128)               0
_________________________________________________________________
dense_1 (Dense)              (None, 128)               16512
_________________________________________________________________
activation_1 (Activation)    (None, 128)               0
_________________________________________________________________
dense_2 (Dense)              (None, 4)                 516
_________________________________________________________________
activation_2 (Activation)    (None, 4)                 0
=================================================================
Total params: 18,180
Trainable params: 18,180
Non-trainable params: 0
_________________________________________________________________
None
C:\Users\nguye\anaconda3\lib\site-packages\tensorflow\python\keras\engine\training.py:2325: UserWarning: `Model.state_updates` will be removed in a future version. This property should not be used in TensorFlow 2.0, as `updates` are applied automatically.
…
