Model: "sequential_1"
_________________________________________________________________
Layer (type)                 Output Shape              Param #
=================================================================
flatten_1 (Flatten)          (None, 8)                 0
_________________________________________________________________
dense_4 (Dense)              (None, 16)                144
_________________________________________________________________
activation_4 (Activation)    (None, 16)                0
_________________________________________________________________
dense_5 (Dense)              (None, 32)                544
_________________________________________________________________
activation_5 (Activation)    (None, 32)                0
_________________________________________________________________
dense_6 (Dense)              (None, 4)                 132
_________________________________________________________________
activation_6 (Activation)    (None, 4)                 0
=================================================================
Total params: 820
Trainable params: 820
Non-trainable params: 0
_________________________________________________________________
None
C:\Users\nguye\anaconda3\lib\site-packages\tensorflow\python\keras\engine\training.py:2325: UserWarning: `Model.state_updates` will be removed in a future version. This property should not be used in TensorFlow 2.0, as `updates` are applied automatically.
…
