Model: "sequential"
_________________________________________________________________
Layer (type)                 Output Shape              Param #
=================================================================
flatten (Flatten)            (None, 8)                 0
_________________________________________________________________
dense (Dense)                (None, 64)                576
_________________________________________________________________
activation (Activation)      (None, 64)                0
_________________________________________________________________
dense_1 (Dense)              (None, 64)                4160
_________________________________________________________________
activation_1 (Activation)    (None, 64)                0
_________________________________________________________________
dense_2 (Dense)              (None, 32)                2080
_________________________________________________________________
activation_2 (Activation)    (None, 32)                0
_________________________________________________________________
dense_3 (Dense)              (None, 4)                 132
_________________________________________________________________
activation_3 (Activation)    (None, 4)                 0
=================================================================
Total params: 6,948
Trainable params: 6,948
Non-trainable params: 0
_________________________________________________________________
None
Training for 150000 steps ...
     74/150000: episode: 1, duration: 0.979s, episode steps:  74, steps per second:  76, episode reward: -76.702, mean reward: -1.037 [-100.000, 16.957], mean action: 1.486 [0.000, 3.000],  loss: 1.329424, mse: 1.058805, mean_q: 0.770597, mean_eps: 0.999748
…
